models/diabetes_model.pth (torch, 20469 bytes, 7 tensors)

shared.0.weight f4 [64, 28]
00000000: c2e3 bbbb 9144 223d 8795 873c bfab cfbc
00000010: aea6 b0bc 7335 47bb f7c2 203e ece2 b0bb
00000020: defe d13d 0dbd 53bd a337 4f3c 627e 61bc
00000030: 72c7 543c a2d7 a33d 80ca 05bf 447f dc3d
00000040: 9bac 62bd dbf2 35bd 06a3 883c 9f6b ae3c
00000050: 20a3 03be 6327 23bd 9a13 973d 6320 863d
00000060: b5ac f0bd 5264 05be 9bba 78bb b039 a53d
00000070: e4d6 13ba 5a2c 813b 22d0 463c 24df 80bc
00000080: 9657 d6bb a333 8ebc 352b 5dbc 377d 56bc
00000090: 7534 283c 9fce 2ebb 99bf c1bb 7654 98b9
000000a0: d017 32bc 6085 f33b 22bd 313a d7b4 acbb
000000b0: 4a3e eeba 3516 ccba faa5 29bc 4635 8cbb
000000c0: 312e 9a3c 9c39 8dbb b781 8cbc 3064 8a3b
000000d0: aa8a 9abc 2a33 003c d9e3 92bc 68a4 9a40
000000e0: edde d6bb 34c2 dc3b 765e 30bb 6752 6b3b
000000f0: b8b7 6ebc 3c79 d13b bc1d 833e c315 cabb
00000100: 9c80 84be 10d2 a6bd ac86 ffba 467e b63c
00000110: e988 b03e 53b0 85be a378 c8bb 31a9 f33d
00000120: da54 e7bc 8fd0 1e3c 6056 95bb 9b71 3e3b
00000130: 427d 003d e25d a6ba 1458 01bd ff77 063e
00000140: cef6 cebd 7961 c53c 40a9 62bb 0984 6e3d
00000150: 3ac4 bdbb 969c 573c 5bd9 9bbd ff8e 673d
00000160: 5df1 733d 4c62 b4bd 087a 1f3d e1d2 b13b
00000170: 469a 763b a8af bdbc c57a a43c a81b e3bc
00000180: ba6e 63bd 3801 413e 1e39 aa3d e4bd 5e3d
00000190: a849 0abe f694 fc3a 2073 85bc 01dd cb3c
000001a0: 4a34 813c 4650 2abc 057c 02be 40b3 89bc
000001b0: 93b1 5dbc 9a66 ed3d 2d07 093e d761 8ebd
000001c0: df23 1dbb 04bf 32bd d572 33bc 2ef7 493c
000001d0: e4ab 99ba b60a e3bc e495 073d e82b 9637
000001e0: 81ac 283d 881f eb3b 5fe1 0fbb d2aa 023d
000001f0: bb7e 953e 0d0d 28be 5368 0dbf 1ac7 6cbc
00000200: ff0f 963d 63f2 0e3d 1c36 dbbb e5c2 c0bc
00000210: 33a6 31bc cf3d b13d 0b42 7d3d 74fb afbc
00000220: dca9 a23d c634 1d3d 3b30 e7bb ca72 aebd
00000230: 61d1 a73a 3b52 bfbd efaf f2ba f2ba aebb
00000240: c669 23bd 1de5 44bd 34f3 b4bd 3d9e 2dbd
00000250: fbe2 68ba c3e4 853d 57dc bc3c 9f60 c6bc
00000260: 33ba 4dbd 46ea 003d edab 213e bed6 ddbc
00000270: 08bc a6bc da5d 2b3b 1245 b13c 408c 96bb
00000280: 6c31 2bbd 4656 313d 404d c73d 25f0 4b3c
00000290: d445 023e 7b59 e03d 87ac 89bd d7ed 95be
000002a0: 60f6 e53c 61d4 8bbc bf67 b7bc 82a3 c73a
000002b0: 69d3 d83b 84b3 f43b 4243 013e d8a0 af3b
000002c0: 172d e2bc 4fc4 62bd e7aa 863c db78 013d
000002d0: 0a97 2a3f c137 d13e 2e0e c53e f76d 773d
000002e0: 345b 07bd 494e 203c d706 6aba d1f9 45bb
000002f0: 5442 1ebd b0bd 1c3d 70ae 033d b865 f53b
00000300: cc8b c5bc 3ebe 14bd 58fd 063c 335a 153d
00000310: 05d3 3b3d 7612 5b3d 6158 a5bc 5af7 a13d
00000320: e173 e1bd 1c6c 7f3c 0718 a13d b5b2 b93d
00000330: 5edf 883e 2716 013b 8d4f 483b 4300 7c3d
00000340: 76d4 c7bc c7c9 e8bd d869 e6bb e20b 6e3c
00000350: a9ea 213e 2a34 03be e4fa 1a3c c9e8 1f3d
00000360: 34ce d93d 7345 ad3d 4a47 0cbe bf3b da3d
00000370: d833 9c3c 7c70 1abe 7eda c33d e3c6 123d
00000380: bc2a f43b 0f47 adbc 3db2 af3c 6c66 293a
00000390: 8977 e3bb 7863 0b3d 9211 7c3e 4a8d 333b
000003a0: b005 cebd b122 a7bd 169e b53b d435 773d
000003b0: 7efc 063f e805 693e d38c fe3c cd61 153e
000003c0: 9d48 87bc fe80 6ebc 09bc 393a 316f 81bc
000003d0: 8603 b2bc 79e3 2e3a b033 873c 1467 743d
000003e0: 0b52 7439 5f13 9d3c 55ad 223c 1e52 953d
000003f0: c2b7 91bb 9c11 95ba 3e68 4cbc 3a8e cb3a
-0.005733938 0.03961617 0.016550792 -0.02535045 -0.021563854 -0.0030396848 0.15699373 -0.005398145
0.1025369 -0.051693965 0.012647542 -0.013763042 0.012987005 0.08000113 -0.52262115 0.107664615
-0.05534039 -0.04442106 0.016679298 0.021291552 -0.12855196 -0.039832484 0.073767856 0.06549146
-0.11751691 -0.1302655 -0.0037953022 0.08067644 -0.0005639626 0.0039420547 0.012134584 -0.015731402
-0.006541203 -0.017358607 -0.013499071 -0.013091377 0.010266413 -0.0026673449 -0.005912733 -0.00029054628
-0.010869935 0.007431671 0.0006780197 -0.005270581 -0.0018176523 -0.0015570583 -0.010354513 -0.0042788116
0.018820854 -0.004309846 -0.017151697 0.004223369 -0.018864948 0.007824698 -0.017930912 4.832569
-0.0065573365 0.006737018 -0.0026911772 0.003590727 -0.014570169 0.006392626 0.25608623 -0.006167145
-0.2587937 -0.08145535 -0.0019495091 0.022277009 0.34479454 -0.26111087 -0.0061178966 0.11897505
-0.028238703 0.009693279 -0.004557416 0.0029059413 0.031369455 -0.0012692774 -0.03157814 0.13131712
-0.10105668 0.02409433 -0.0034585744 0.058231387 -0.0057912143 0.013159892 -0.07609817 0.056532856
0.059556354 -0.08807811 0.038934737 0.00542675 0.0037628575 -0.023155048 0.020078072 -0.027723148
-0.05552552 0.18848121 0.083116755 0.054380313 -0.1350466 0.0019270468 -0.016290247 0.024885656
0.015772004 -0.010395115 -0.12742622 -0.016809106 -0.0135311065 0.11591835 0.13381644 -0.06952255
-0.002397768 -0.043639198 -0.010952671 0.012326999 -0.0011724201 -0.027715068 0.03310193 1.7901839e-05
0.041180138 0.0071753897 -0.00219544 0.03190119 0.2919825 -0.16411228 -0.5523731 -0.014451766
0.0732727 0.034899127 -0.0066898 -0.023530433 -0.010842848 0.08654367 0.06183056 -0.021482207
0.07942554 0.038380407 -0.00705531 -0.08517988 0.0012803489 -0.09341856 -0.0018515567 -0.005332344
-0.039895795 -0.048070062 -0.0883545 -0.042387236 -0.00088839204 0.065377735 0.023054285 -0.024215994
-0.0502264 0.03147342 0.1578824 -0.027079936 -0.020353332 0.002614847 0.02163938 -0.004594356
-0.04179518 0.043295167 0.09731531 0.012447392 0.1272195 0.10954567 -0.0672236 -0.2928302
0.028071582 -0.017069044 -0.022388337 0.0015231224 0.006616999 0.007467689 0.12623313 0.0053597502
-0.027609391 -0.055362996 0.016438914 0.031609397 0.6663672 0.4086285 0.3848738 0.060407605
-0.033045962 0.00978429 -0.0008927411 -0.0030208717 -0.038637474 0.038266838 0.03214878 0.0074889325
-0.024114512 -0.03631424 0.008239113 0.036462974 0.04585554 0.053484403 -0.020183744 0.07908507
-0.1100843 0.01558974 0.07865911 0.09067289 0.26732916 0.0019697042 0.0030564994 0.061523687
-0.024393301 -0.11366611 -0.0070316605 0.0145292 0.15812172 -0.12812868 0.009459231 0.03904036
0.10635033 0.08460512 -0.1369907 0.10655927 0.01906769 -0.15081972 0.095631585 0.035834204
0.0074513834 -0.021152047 0.021447295 0.00064621004 -0.00694174 0.034030408 0.24616078 0.0027397447
-0.100596786 -0.08160914 0.005542527 0.06035407 0.5272902 0.2275616 0.03107301 0.1458809
-0.016514117 -0.014557121 0.00070852094 -0.01580009 -0.021730196 0.00066714693 0.016504139 0.059668615
0.00023300217 0.019174276 0.009929021 0.07291053 -0.0044469545 -0.0011373046 -0.012476025 0.0015530058

shared.0.bias f4 [64]
00000000: dbd3 3c3f 7385 9f3e 650c 2b3f 5c45 a8be
00000010: a0c2 483f 63d0 0b3f 5b7a 6b3e b264 2bbe
00000020: 7497 aa3e 23d1 2f3f c6fc 303f 2e85 e5be
00000030: 6884 4e3f 0c5d be3c 0572 873f 8deb 143f
00000040: 0bca 543f 45b9 543f 8070 04bf ca42 32bd
00000050: b721 873e 3a0e 1e3f 8c03 e13e 9c1b 5e3f
00000060: d0f3 c03d 38ee 173f f2ba 823d 0aa0 103f
00000070: 8ae6 643f 1f78 0c3f 4cb0 343f d937 3b3f
00000080: a2f9 583e 9c4d c43e 36fb ba3d 23f0 ccbd
00000090: 85d6 833e 9d1d 333f d5e8 483f 8d2d 1f3f
000000a0: 2513 8b3d c01c 863f c1ed 183f db3b 983d
000000b0: 7ac6 343f d9e2 273c b7ec 49bd b4e2 823f
000000c0: cb1e 133f d5f1 27be 7ead 5c3f 0f37 383f
000000d0: e747 053f 55be b03e b941 1e3f 1949 113e
000000e0: 2301 df3e ea8d 7c3f c171 44be 3ba3 33bc
000000f0: 4906 093f 2bb6 aa3e f258 453f 6fb9 783f
0.73760766 0.311565 0.6681579 -0.32865417 0.78421974 0.5461485 0.22995894 -0.16737631
0.33318675 0.6867849 0.691357 -0.4482817 0.80670786 0.023237728 1.0581671 0.5817192
0.83120793 0.830952 -0.5173416 -0.043520726 0.2639291 0.6174046 0.4394802 0.8676088
0.094215035 0.5934787 0.06383313 0.564942 0.89414275 0.5487079 0.7058151 0.7313209
0.21188977 0.3834046 0.09129946 -0.1000674 0.25749603 0.6996706 0.78480273 0.6217888
0.06790761 1.0477524 0.59737784 0.074332915 0.7061535 0.010246956 -0.049298014 1.0225434
0.5746886 -0.16400845 0.8620223 0.7195901 0.5206284 0.34520212 0.61819035 0.14188041
0.43555555 0.98654044 -0.19184019 -0.01096421 0.53525215 0.33342108 0.77088845 0.9715795

shared.2.weight f4 [32, 64]
00000000: ff12 c5bc b580 503d 86c2 dbbc e1a9 87bd
00000010: 6799 5abd 19ff fdbc 2dea 303d bb7e 8ebc
00000020: 2baf 303c 9607 cbbd 2276 623d 1fa1 d9bd
00000030: a08f 133d 4164 99bd feeb 953d 27f0 13be
00000040: a676 7fbd 34e7 8dbd 3e11 8bbc 6509 a5bd
00000050: c79d a1bd 5c48 053d 4934 d1bd fee2 4fbd
00000060: f6c9 7e3d f263 0abe 06d4 8f3d a230 92bb
00000070: 64c5 36bd c52b c3bd c027 53bd 9b82 ff3c
00000080: 0201 073d 6a38 afbd 2a2c 07be d20d e4bd
00000090: add8 00be c0e2 44bd e368 b2bd a86c ebbd
000000a0: 3086 0b3a beb0 533b 06d5 a23d 4a7b 883c
000000b0: 8612 98bd 3aa8 e5bd 6aea 013d 62eb 6fbd
000000c0: 1e22 8a3d 2e35 be3a 9920 043b e365 a0bd
000000d0: 5a24 02be 7f29 36bd 064c bbbd 9c50 11be
000000e0: fa42 88bd d699 323d be11 04be b951 e6bc
000000f0: 4496 c8bd 38f4 b3bc 559c c43d 3c2f 12bd
00000100: c0a5 62bc b8be cf3b 6330 cf3d 00e1 283d
00000110: 45c4 ffbd a870 453e acdb 3c3e dba2 7abd
00000120: 3ba9 dbbc 55df b83d ff20 e0bc 080a 2cbc
00000130: 9af9 563e 3576 9c3e 86ad dcbe adb9 803d
00000140: cae3 b53e 3757 37bd f25f 81bc 19b4 383d
00000150: e451 d93d 69eb 0a3d 3526 17be 48cb 133e
00000160: 928c c7bd 2808 383d 9e27 f13c ea1d 9c3b
00000170: 02a7 a0bd ab58 21bd eec9 5a3e d2b6 b9be
00000180: 744f 8c3c 238a afbd fee1 013c 267d 9e3d
00000190: 0fa6 2c3e 9cfa 84be b0c8 8c3e fe2a 84be
000001a0: 29be 133d f1e7 9cbe 6463 ae3d bffc 04bd
000001b0: af30 62bb 72c9 15bc 937b 26bd 75dd 03bf
000001c0: 9e9f 503e 79be a03c b780 6ebd dba8 933c
000001d0: fbcc 603e 9e3f 71be c2cb 543e b2f2 68bd
000001e0: 285d c73d 4358 c2bd ee3e f83d 3a62 213d
000001f0: 9fa5 da3c cf42 063e 79f2 323e 5054 a2be
00000200: 1284 95bd 20d5 52bd b86a 303b 2382 433d
00000210: d14f dfbc 418c 823d 94ab 433d 7fb3 0a3e
00000220: f638 763e 5f15 f5bd 2f84 ef3d e93d cbbd
00000230: f07f 783d 11c8 363e f3d0 69be db9a 3d3e
00000240: 8118 163e 78e8 16be 3aaa 913c 8f38 ce3d
00000250: 42be 113e 9c26 513c 2ebe 003e c1df 023b
00000260: ed52 593e 2411 413e 045f ba3c b3ba 843d
00000270: 4432 5abe 7bb7 ae3d 4746 4c3e afa2 83bc
00000280: 68b1 2d3e 7703 bf3d 1374 81bb c52b 993d
00000290: 289b 0d3e b3fd d73d 04a1 c8bd 7464 81bd
000002a0: 26eb f6bb 6bb0 853b 4298 0ebd 3871 3abc
000002b0: 48cd 33bd 65d2 583d 3bbd 3c3e 98f4 bcbe
000002c0: a692 e23c 9e41 2d3e b7b0 c3bd 8113 93bd
000002d0: b6ee 0fbe 734c 7f3d eb4e c23d 1c72 e13d
000002e0: ac96 4b3e 42e6 c83a 5be5 24bc 22c5 8b3d
000002f0: 68e7 e23d a957 283e dcb7 7b3d d97b 93be
00000300: 59ec 10be 508b b03b da06 ca3d df9d 96bd
00000310: 54fb b0bc 6e44 7ebd 3c3c 3dbd 94b8 813d
00000320: 3139 753d 7f8b f3bd 0e85 853d ef0b 60bb
00000330: 4d4c e7bd 5d0c 76bd 26b7 a4bc 72ef e6bd
00000340: 2c05 fc3c fc62 993c b4f8 4e3d 3872 d7bc
00000350: 61a9 acbc a7b1 023d d47f a4bd 30c7 01be
00000360: 4893 4bbd 5d82 a3bd f27f f53b e1e0 0bbe
00000370: 5462 d5bd c451 c83c 13b4 bf3b 8842 a0bd
00000380: 280b d3bd cf79 3abd 1547 423d 52f5 b53c
00000390: c4ad 0f3d cbf5 02be 7edc fc3c 5feb 2c3d
000003a0: 1523 cd3b 5ecf 3abd 6403 ce3c c246 a3bd
000003b0: 1f40 f2bc 3959 cb3d 23c6 a7bb 0ab8 0dbe
000003c0: 5deb f4bd 0b64 96bc 2e57 a4bc 553b a7bd
000003d0: d9ed 84bd eb3a 2b3d 1f10 033d 9298 f5bd
000003e0: a5fc 06bc 34e0 03bd e829 b1bd bb4b 5eba
000003f0: 9d0f 7a3b 1135 113a 69db 5abd 81f0 2cbd
-0.02405691 0.050903995 -0.026826154 -0.06624199 -0.053368952 -0.03100543 0.043192077 -0.017394414
0.010783951 -0.09913556 0.05528844 -0.106264345 0.036025643 -0.07489825 0.073204026 -0.1444708
-0.06236901 -0.06928864 -0.016975995 -0.080584325 -0.07891422 0.03253971 -0.10215051 -0.050753586
0.062204324 -0.13514689 0.07022862 -0.004461364 -0.04462184 -0.09529833 -0.05155158 0.031190207
0.032959945 -0.08555682 -0.13200441 -0.111354485 -0.12582655 -0.04806781 -0.08711412 -0.11495334
0.00053224247 0.0032301391 0.07950787 0.016660351 -0.07425408 -0.11213727 0.031717695 -0.058574088
0.067447886 0.0014511698 0.0020161031 -0.07831933 -0.1270918 -0.044473168 -0.0914536 -0.14190906
-0.066534 0.04360374 -0.12897393 -0.02811514 -0.09794286 -0.021967039 0.096001305 -0.035689577
-0.013833463 0.006339874 0.10116651 0.0412302 -0.12488607 0.19281256 0.18443173 -0.061190467
-0.026814094 0.09026972 -0.027359484 -0.0105004385 0.20993653 0.30558935 -0.43101138 0.06285415
0.35525352 -0.04476091 -0.01579282 0.04509363 0.106113225 0.03391591 -0.14760669 0.14433014
-0.097436085 0.044929653 0.029437836 0.004764308 -0.07844354 -0.0393912 0.21366093 -0.36272293
0.01712773 -0.08571269 0.007927416 0.07738714 0.16860221 -0.2597245 0.27496862 -0.2581405
0.036070023 -0.30645707 0.08515051 -0.0324676 -0.003451388 -0.009142267 -0.040645193 -0.5150979
0.20373389 0.019622074 -0.05822822 0.018024852 0.21953194 -0.23559424 0.20780852 -0.056872077
0.09734565 -0.09489491 0.12121378 0.039400317 0.026690302 0.13111423 0.17475308 -0.3170495
-0.07300581 -0.051472783 0.0026919078 0.04773153 -0.02725974 0.063744076 0.04777105 0.13545035
0.24045166 -0.11966967 0.11695134 -0.09923918 0.060668886 0.17849757 -0.22833614 0.18516104
0.14657785 -0.14737117 0.017781366 0.100693814 0.14232734 0.012765553 0.12572548 0.0019969794
0.2122304 0.18854195 0.022750385 0.064809225 -0.21308237 0.0853109 0.19948684 -0.016068785
0.16962206 0.09326833 -0.0039506047 0.074790515 0.13828719 0.10546436 -0.09796336 -0.06317988
-0.007535356 0.0040798686 -0.034813173 -0.0113795325 -0.043896943 0.052935023 0.1843156 -0.3690536
0.027657818 0.16919562 -0.0955519 -0.071814544 -0.14055905 0.062328767 0.09487709 0.11008093
0.19881696 0.0015327411 -0.010064448 0.068247095 0.110792935 0.1643969 0.06145464 -0.28805426
-0.1415266 0.005387701 0.09864588 -0.0735433 -0.021604218 -0.06207698 -0.046200022 0.063340336
0.059868995 -0.11891841 0.06519519 -0.00341868 -0.1129385 -0.060070384 -0.020106863 -0.11276139
0.030764185 0.018723957 0.05053015 -0.026299581 -0.02107686 0.031907704 -0.08032194 -0.1267364
-0.049701005 -0.07983849 0.007492059 -0.13660003 -0.10419145 0.024453051 0.005850324 -0.0782519
-0.10304862 -0.045526322 0.04743107 0.022211704 0.035077825 -0.12789075 0.030866858 0.042216655
0.0062602856 -0.045607917 0.025148101 -0.0797248 -0.029571591 0.09929127 -0.0051200553 -0.13839737
-0.119589545 -0.018358251 -0.020061102 -0.081656136 -0.06490678 0.041804235 0.031997796 -0.11991991
-0.008238946 -0.03219624 -0.08650571 -0.00084799126 0.003815628 0.00055392185 -0.053431902 -0.04222155

shared.2.bias f4 [32]
00000000: 8d49 8e3d 2c08 693e d809 69bd 69b2 c83d
00000010: 7b6e 14be eb22 bc3e 71aa 83be 1def f43c
00000020: 805b 373e 529b 7f3e 5386 99be 1f06 f1bd
00000030: 1897 7d3e f17e 9f3e eb08 f13e e1c9 483e
00000040: 4abb f03d 34a1 543e 4b55 be3d a4b9 cc3e
00000050: cc76 26bf 9405 8d3e f948 3bbd b204 843e
00000060: 84a0 ca3e c978 6cbf 48cd ee3e 1b7d c83e
00000070: e8aa 8e3e c731 2fbd b345 4d3e 825f f8be
0.069476224 0.22757024 -0.056894153 0.09799654 -0.1449527 0.3674539 -0.25715974 0.029899174
0.17905998 0.24961594 -0.29985294 -0.11768746 0.24764669 0.31151536 0.47077116 0.1960826
0.117544726 0.20764619 0.09293612 0.39985383 -0.6502502 0.27543318 -0.04572389 0.25784832
0.3957559 -0.92371804 0.46640992 0.39157948 0.27864766 -0.04277208 0.2004612 -0.48510367

diabites_head.weight f4 [1, 32]
00000000: d215 2b3e b6e9 04be 00a7 00bf 32cb 89bd
00000010: 1ffa 27be 2267 593d 03c4 203f 0a2f 98be
00000020: 76a3 e13d 5f8e 9c3e 6500 4abf 4afc 50bd
00000030: fb50 603d fb3c 50be 5aab 943d ceec c73d
00000040: ae24 21c0 4944 5ebe 927f c6be 742b 58be
00000050: 0913 9d3f d1f3 373e abc6 94bd 31de 023e
00000060: 5a53 f83d 2853 c5be 0d8d b1bd 3ada 95bd
00000070: 2a9c 7e3e 9944 82be a864 803d 4561 7abe
0.16707543 -0.12979779 -0.5025482 -0.067282096 -0.16404007 0.05307687 0.6279909 -0.29723388
0.11017506 0.3057737 -0.7890685 -0.05102185 0.05476473 -0.20335762 0.07259245 0.09761964
-2.5178638 -0.21705736 -0.38769203 -0.21110326 1.2271434 0.17964102 -0.072644554 0.12780072
0.12125273 -0.38540006 -0.086694814 -0.07317014 0.2486426 -0.2544296 0.06269199 -0.24451168

risk_head.weight f4 [1, 32]
00000000: 4310 dc3a 0913 a4be 9de0 52be 4aae 40bd
00000010: 7fe4 67be 4a3b af3e 8d75 55bf b178 b1be
00000020: 1ea7 94ba d6e4 bf3e e4dd fcbe c70c e3bd
00000030: 5593 cf3e efd7 d53e eb9e b33e ad43 b63e
00000040: 88a4 8b3b ff99 9e3e e698 88be 29d5 723e
00000050: 7126 43bf 424e c93e bff5 beb9 a1d8 9f3e
00000060: 9180 953e 4f88 87be 3fa0 8f3e 216f ad3e
00000070: c410 683e 9ccd 07bf 43cf c63e 82b5 a7be
0.0016789514 -0.32045773 -0.20593496 -0.047041215 -0.22645758 0.3422492 -0.83382493 -0.34662393
-0.0011341309 0.37479275 -0.4938804 -0.110864215 0.40542093 0.41766307 0.35082182 0.35598508
0.004261557 0.30976865 -0.26679152 0.23714127 -0.7623053 0.39317518 -0.0003642272 0.31219962
0.2919965 -0.26471183 0.28051946 0.33873847 0.22662646 -0.5304811 0.38830003 -0.32755667

stage_head.weight f4 [1, 32]
00000000: 01ef 75bd a5ba 673d 9aec 303d 121f 07be
00000010: be8d bdbc ac6e 1b3d 38d7 463e 1b8d b4bb
00000020: 1736 8f3e 85e5 f53d 620a e13c 980f 983c
00000030: 8ab1 f2bd 2716 9ebc 4949 0b3e b4a8 d2bd
00000040: 9839 7fbf a6b9 503c 5031 183e 8e1e 2f3c
00000050: 7d44 20be c764 563d 1278 eabd cc0a 823d
00000060: 24b3 043e 4b7a 01bf 0529 6f3d 10e0 e03d
00000070: f827 a43b f4f9 2ebd 899b b53d 9e09 68bd
-0.060042385 0.056574482 0.04319439 -0.13195446 -0.023138877 0.03794734 0.19418037 -0.005509985
0.27970955 0.12006668 0.027470771 0.018562123 -0.11850269 -0.019297672 0.13602175 -0.10286084
-0.99697256 0.012739575 0.14862561 0.010688437 -0.15651126 0.052342203 -0.11448683 0.063497156
0.12958962 -0.5057723 0.05838873 0.109802365 0.0050096475 -0.042718843 0.088675566 -0.056649797
