models/diabetes_model.pth (torch, 19561 bytes, 6 tensors)

shared.0.weight f4 [64, 28]
00000000: 8799 11bd 28e3 d83c 6f05 f5bd 23e0 debd
00000010: dd2e f93d 8de2 b63c c786 4b3d e7e3 303d
00000020: b462 b93d f9db 02bd 814d 28bd e9ce 38bd
00000030: 866d 303f ab46 023e e1ad 283e 9770 ffbd
00000040: 9ffe dbbc 92e1 583e 04bd ffbb 4255 a4bd
00000050: d5e5 75be 2471 eb3d 4383 c53e 772a 60bd
00000060: c7b8 c1be 069d 15be 4ca7 483e 6f72 7c3f
00000070: 2a2f cebe b296 bbbd ad73 613e 78a8 ac3d
00000080: 9ed5 033c 725a 893e e029 44bd 8cb2 6d3e
00000090: e793 f23c 41e7 58bd d072 94be 566d 1c3d
000000a0: 0869 363f 3b66 893e 75f0 8cbe 2bce e6be
000000b0: 67d5 a1be 75e6 50be f734 d4bd 211c f63c
000000c0: a9db 8c3e 4ead b4bc 07e9 fdbd bd71 283d
000000d0: f621 bebe 0472 c03d a730 a13e 3a22 803f
000000e0: 432c a5be a1e0 5abd f41c cfbd 39cd 46bd
000000f0: 86c0 1c3e 56c6 213e adad a0bf 3134 3cbe
00000100: 11ba 683e b027 60be f1a6 b13e 71ad 06bf
00000110: 7989 65be d880 c03e 7280 e5bd 9420 ba3e
00000120: 1fdc 00bf f386 a1bc 14c8 37be 095f 693e
00000130: e315 14be a824 1dbd 6795 89be 3be8 df3d
00000140: 49f5 63be 7437 623f 8197 5c3d d81a b83e
00000150: 2f88 d93d 387e bb3d ee5c c7be ef75 ba3d
00000160: d1af ba3b 4ca6 493e 9034 debd 1379 a8bd
00000170: 1431 ab3d 559a 843d aaef bc3e 6c41 b73e
00000180: 93dd 153d a741 a3bd 9202 e93d 36e0 343c
00000190: 5223 253e 2bc7 06be dbd0 34bd e884 313d
000001a0: 5f82 ccbd 4925 023e 7aaf a6bc 0cd5 153e
000001b0: bb7b e5be 02fc afbd b0c5 9bbd c000 76bf
000001c0: 87ca 9f3f 79f6 2cbd 9aab f03d e75b 9abc
000001d0: c11a b03d 7658 d3bc 349e d8be c400 533e
000001e0: 8c7a 053c 8a90 3fbd 2b50 363e 6212 87be
000001f0: 6aba 7c3e aa8c 0ebd 3975 1fbd db30 b1be
00000200: 0627 0c3d 3080 a33e e847 6cbe 63ce 473e
00000210: e94f 0e3d b663 953e 230d 9ebe 2965 2e3e
00000220: ebc5 9ebe 5efc 0f3f 9c72 c93e e150 ab3e
00000230: c584 72bc 6629 e53c 3b59 94b9 919b fbbb
00000240: 417e 0ebd bea1 e23c 0ebb 993c ddad f73c
00000250: 9110 023d 1e43 2fbc 67be 26bc 4f37 983c
00000260: 77b6 ddbb 734c c5bc cb9a a53c 3e0a 853d
00000270: e6b6 3ebd 7aee 7ebc 8ff8 a5bb 8875 c9bc
00000280: 1952 e1bc 9f50 fb3c 9987 8cbc 5267 e9bb
00000290: e2d9 3abf 3fe4 52bc a012 66bd 4949 e33f
000002a0: 3b9b 933e 73ec 493e 3406 b73d eb42 cb3c
000002b0: 8df0 023c 228c c53d eb30 6b3f 9a82 29be
000002c0: aa58 dc3b 3c55 0bbc 2ed4 b33e 6a6f 463e
000002d0: fb0a ebbe a56e c03d 3ec7 423e 5924 c23e
000002e0: 076e 37be e52b 79bd 0a95 9dbc 0273 8fbd
000002f0: 9e49 2cbd 15a9 8a3e dc91 82be 52ce 61be
00000300: 6b21 c53e 6e33 863e afe8 9a3e 94d3 493f
00000310: 89bf 8fbd 8f87 fcbd 19b5 fabd 474f 723e
00000320: 0ebf e6bd 8582 7ebd b8fb f7bd 00fa b1bc
00000330: e8a8 b73b f179 59bb a9a5 123e 3ffd 003e
00000340: 8f9c a0bd a73a a2bd 9867 c03c 13fb 3cbe
00000350: 15d8 fa3b fbe1 20bc 19f6 493d 6eab 8dbd
00000360: cc15 80be 2b0c f63d 0d5b ba3d 40c3 a7bb
00000370: cb6b ba3f 07f7 e23e be04 2bbe 9cc0 5040
00000380: 6321 4b3e a635 4a3e d83f 77bc 527a ebbd
00000390: c78b 64bd 4e64 edbc 5e88 44be ed37 c83d
000003a0: dd33 b5bd 25f7 3ebe b174 4a3e 21d6 9a3e
000003b0: e190 bcbd 0fc7 4c3d df53 dd3d 27b7 26bd
000003c0: fa77 0c3d f38f 2cbe 6d78 cc3d 1486 4ebe
000003d0: c7bf 87bd 4bb2 c43e 1f33 743d 80b8 2dbd
000003e0: 857b 393f 2e54 973c 1bb4 633e d20e aebe
000003f0: 3889 a0bb 70f0 24be b02f 2abe 23c5 6a3d
-0.035546806 0.026475504 -0.11963927 -0.108825944 0.121671416 0.022324825 0.04968908 0.043186095
0.09052029 -0.031948064 -0.04108954 -0.0451192 0.6891712 0.1272227 0.1647258 -0.12472647
-0.026854811 0.21179798 -0.007804515 -0.08024074 -0.24013455 0.11496189 0.38576707 -0.054727998
-0.37836286 -0.14610681 0.19595069 0.9861211 -0.40270358 -0.09159602 0.22016783 0.0843057
0.008046536 0.26826817 -0.047891498 0.23212641 0.029611541 -0.052954916 -0.28993845 0.03819021
0.71254015 0.26835808 -0.27527204 -0.4507917 -0.31608126 -0.20400412 -0.10361665 0.03004271
0.27511337 -0.022055294 -0.12397962 0.041124094 -0.37135285 0.09396747 0.3148243 1.0010445
-0.32260332 -0.05343688 -0.10112944 -0.04853556 0.15307817 0.15798315 -1.2553002 -0.18379284
0.22727229 -0.2189014 0.3469768 -0.526084 -0.22415723 0.375983 -0.112061396 0.3635298
-0.5033588 -0.01971767 -0.17947417 0.2279016 -0.14461474 -0.038365036 -0.26871797 0.10932966
-0.22261538 0.88365865 0.053855423 0.3595798 0.10621678 0.09154934 -0.38938087 0.09104525
0.0056972285 0.19692343 -0.10849869 -0.08226218 0.0835897 0.06474749 0.369016 0.357921
0.036588263 -0.079715066 0.113774434 0.011039784 0.16126755 -0.13161914 -0.044144493 0.04333964
-0.09985804 0.12709536 -0.020347346 0.14632052 -0.4482096 -0.085929886 -0.07606065 -0.96094894
1.2483681 -0.042227242 0.117514804 -0.01884265 0.08598853 -0.025799017 -0.423082 0.20605761
0.008146893 -0.046768703 0.17804019 -0.26381212 0.24680486 -0.034802116 -0.03893015 -0.34607586
0.034216903 0.31933737 -0.23074305 0.19512324 0.034744177 0.29177636 -0.30869398 0.17030777
-0.31010374 0.56244457 0.39345253 0.33460143 -0.014802163 0.027973842 -0.00028295242 -0.007678457
-0.034788374 0.027665015 0.018765952 0.030234272 0.03175408 -0.010697154 -0.010177231 0.01858106
-0.0067661363 -0.024084305 0.020215413 0.06496094 -0.046561144 -0.015559787 -0.005065031 -0.024592176
-0.027504968 0.030678092 -0.017154502 -0.0071229124 -0.7298871 -0.012871801 -0.056170106 1.775674
0.2882937 0.19719104 0.0893673 0.024812182 0.007991922 0.09645869 0.9187152 -0.16553727
0.006724437 -0.008504208 0.35122818 0.19378439 -0.45906815 0.09396104 0.19021317 0.37918356
-0.17913066 -0.060832877 -0.019236106 -0.07004358 -0.042062394 0.27082124 -0.25501907 -0.22051361
0.38502058 0.26211113 0.30255648 0.7883847 -0.07018954 -0.12330543 -0.12241573 0.23663054
-0.112669095 -0.062136192 -0.121085584 -0.021725655 0.005604852 -0.0033184255 0.14321007 0.12596606
-0.07842361 -0.07921343 0.023486897 -0.18455152 0.0076551535 -0.009819503 0.049306963 -0.06917463
-0.2501663 0.120140396 0.09099398 -0.005119711 1.4564146 0.44329092 -0.16701028 3.261756
0.19836955 0.19747028 -0.015090905 -0.1149794 -0.055797365 -0.028978493 -0.19192645 0.09776292
-0.08847783 -0.18648966 0.19771077 0.30241492 -0.09207321 0.049994525 0.10807013 -0.04070201
0.034294106 -0.16851787 0.09983907 -0.20168334 -0.066283755 0.38417277 0.059619065 -0.04241228
0.724541 0.018472757 0.22236674 -0.33995682 -0.0048991702 -0.16107345 -0.16619754 0.05731691

shared.0.bias f4 [64]
00000000: 70a6 3c3f d6c3 cdbd 08b8 01be 6aa8 87be
00000010: df4d 33bf e70c 983f 77ef 123f ca17 3e3e
00000020: 0bd0 f83e 66a2 e5bd 3aaa c93e b96d 84bf
00000030: 94d8 ce3c 4c08 0abf 4c98 94be 732c 923f
00000040: d94a 503f 6268 f93e 64b2 33bf fd22 583f
00000050: 5770 2abd 3150 39bf bafc 763e 3fd6 3c3f
00000060: 1bdf d8be ff13 fc3e c700 34bf b3bd c6be
00000070: d965 cdbe 9327 79bf 34ce 853f a39c c5bf
00000080: 6c6b b33e 8c15 5d3f 1607 923f 1afa 41bf
00000090: 458d 3c3f abdf aebe 4616 32bf ab37 81be
000000a0: e223 20be 0b4a d53c 0266 533f 641d fa3e
000000b0: e56b 53bf 32fc cb3d e475 0abf c6ed 71bf
000000c0: bcc7 62bd 18a1 a03e 1d89 5cbf b7c1 ad3e
000000d0: 5c86 6e3e 7cc3 f03d 6845 6e3f 5e5c 2bbe
000000e0: 12c0 4f3e 74bf b4be 1fef 143f 624e a13e
000000f0: 7873 f93d 9d34 c33d 537b 973e f9b2 8c3f
0.73691463 -0.10047118 -0.12667859 -0.26495677 -0.70040697 1.1878937 0.57396644 0.18563762
0.48596224 -0.11212616 0.39387685 -1.0345985 0.025249757 -0.5391891 -0.29022443 1.1419815
0.8136421 0.4871245 -0.7019408 0.8442839 -0.041611042 -0.7238799 0.24119845 0.73764414
-0.42357716 0.49234006 -0.70313686 -0.38816604 -0.40116766 -0.9732601 1.0453553 -1.5438427
0.35042894 0.86361 1.1408412 -0.7577225 0.7365306 -0.3415502 -0.69565237 -0.25237784
-0.15638688 0.026036283 0.82577527 0.48850548 -0.8258651 0.09960212 -0.54086137 -0.9450344
-0.055366263 0.31372905 -0.8614672 0.33936855 0.23293442 0.11756036 0.93074656 -0.16734454
0.20288113 -0.35302317 0.5817737 0.31505114 0.12180227 0.095315196 0.29586276 1.0992118

shared.2.weight f4 [32, 64]
00000000: 2823 8ebe 95f8 a13e 9fbb 2abe 016b 6cbc
00000010: 24f9 b0bd 1b0c f1bc ee62 c7be 40db 6abd
00000020: 6e31 14bd 36a3 0bbf 652c 96bd 6c00 76be
00000030: 7e4f 1cbf ca30 bd3d 758c 02be 8359 b7bd
00000040: 7a65 44be f262 29be cef0 10bf 77d0 b93e
00000050: a5c5 b33c 3f52 173e 8ef3 c3bc 5313 eb3d
00000060: 4031 0abf e57b dabd ef38 f43e 0921 033e
00000070: 1891 e33e 3c99 38bf f6db b4be 5eea 42be
00000080: 675a 11be 606c a6bc 465b 473e d118 92be
00000090: fa05 81be f84b 05be 719f 423e a18c 873e
000000a0: 79ca 8a3e 597a 91bd 4195 18bf 816c d0bd
000000b0: a6f3 fdba 91eb 77bd 39a6 06bf a2c6 5e3e
000000c0: 42a6 6fbe bdbe 053d ed42 0cbe ea7f b9be
000000d0: b823 4a3c f7fa 063f 3666 bb3e a689 123e
000000e0: 9196 13bf abe8 a33e 7236 c83c 7428 2c3d
000000f0: ae38 9e3e 12ed c73d 77d5 74be 4f63 84be
00000100: 2729 b93e b7ef 1c3f e95b 5f3d e033 673d
00000110: d110 84bd 11cc f1be 7d87 293f 7517 d73d
00000120: 2e2f 413d 8ac9 a0be 7dea cabe dac9 fd3d
00000130: 2842 d73d e189 913f 30bb 0b3a fd6a 2cbe
00000140: 1aa9 62be 5268 303e 12a7 223e f2b1 113e
00000150: dd40 2b3e caa3 983e cd83 efbd 5ed0 debe
00000160: 633c 12be cc79 f2bd 3f4c 8bbe 3108 cf3d
00000170: 0aed 8dbe 7618 70bf bec9 433e 2932 35be
00000180: 600d c43c 520f c7be 848b 00be e1a5 a2bd
00000190: 23d6 1cbd ec12 be3d 09ba 4a3f d950 c7be
000001a0: 4a6e 85be 706b ec3c 8679 5abe f442 31bf
000001b0: 19a4 a13d 5333 31be 303c b3be 1a38 123f
000001c0: a587 3dbf b3ca ed3e 7a92 583f 9d04 d53c
000001d0: d073 a53e 47f5 90be 9aa5 d73e 0d7c e03e
000001e0: 4d14 56bd 2306 793f e765 6bbe 58b0 9e3c
000001f0: 0e7b 343f d20f b53e 97f2 eabe f209 853e
00000200: af67 8abc 760b 0b3e 0946 fdbd da97 37be
00000210: 729d 2abe c883 8b3f f029 483e 964f 35bf
00000220: e6b1 a43e 399d 0f3e b508 9bbd f6b4 9cbe
00000230: 2c29 843e 8911 8bbd be13 d33d a643 6d3f
00000240: bcfa a93e 82f1 ecbc 3b91 45be 3ace c6bd
00000250: 8e0d babd f10c 533e c82b 16bf a7f7 5a3e
00000260: 5173 0c3e f3ce e73d a7e9 e3bc 899d ce3d
00000270: 76e7 dbbe 6c57 24be 2150 a33d 9dfd 03bf
00000280: a2a4 7dbf f9cf ee3e 39fe 1b3f 079c bbbe
00000290: 4368 ee3d e8a7 633e 085c b53c 48b6 41bd
000002a0: 9db7 d13c 406a a8bd de27 523c aa11 013f
000002b0: 1d74 32bd 2756 b43d ac1a 68be afe7 043d
000002c0: c0e7 8a3e 4bde 643e a8a5 543e e053 18bd
000002d0: 4e4e 773d 3dc7 063e baca 7b3e 8d1e 9fbc
000002e0: 5a1a 103d 20ab 643d b5c7 e23d 7eac c6bd
000002f0: eca5 2c3e b802 a73d 8c7f bc3d f04f 1c3e
00000300: ee23 c13d d8b5 1abf d8ab 5a3e 0d79 303e
00000310: f6d9 e1bf b9b5 c5bf 6030 26bf c55c 0a3f
00000320: 50da 4c3e 4d23 adbe b7c4 1bbe 6300 5fbd
00000330: d49a 133d 2848 a9bd 569f 82bf 942b c7bf
00000340: a3c7 663e ddd4 f8bd 29de 773e d2e9 bfbd
00000350: 2e51 e9be b096 ad3d 9902 0a3f aa4a 94bf
00000360: 2381 313d ab08 873d f885 2c3f 2cf9 42be
00000370: 3718 503f 4729 043f 1723 113c 2721 17bf
00000380: f1bf 6ebd cce0 703e 0a23 babe ea90 203e
00000390: 2c76 2a3e 5a24 5f3f c8d2 8abd cebe 11be
000003a0: a48e 7abf 00c6 e6bf 3d89 353e 2e62 8a3e
000003b0: 3de6 5fbd 164c 043e 2ab4 d2bf 18bf 5e3e
000003c0: 2713 423f 99db 16bf a240 07bf e90c b2bf
000003d0: f211 5e3e 82f0 113f d787 8a3e 7b3d 9ebf
000003e0: 8d4d 193e 619f 8ebf a763 86bf ba0a 503d
000003f0: 8c0f 8d3c fe99 96be 0f33 c4bb a646 d6be
-0.27761197 0.31634966 -0.16673134 -0.014429809 -0.0864127 -0.029424718 -0.38942665 -0.057338
-0.036179952 -0.54545915 -0.07332686 -0.24023598 -0.61058795 0.092378214 -0.12748893 -0.0895262
-0.19179335 -0.16541651 -0.5661744 0.3629186 0.02194483 0.14777468 -0.023919847 0.11478295
-0.539814 -0.10668162 0.47699687 0.1280557 0.44446635 -0.7210882 -0.35324067 -0.19034716
-0.14194642 -0.02031535 0.19468412 -0.28534558 -0.25199872 -0.13017261 0.19006135 0.2647448
0.271076 -0.07103414 -0.59602743 -0.101769455 -0.0019374981 -0.060527388 -0.52597386 0.2175546
-0.23403266 0.032652605 -0.13697405 -0.36230403 0.012337618 0.5272669 0.36601418 0.14310321
-0.5765162 0.3201345 0.024440024 0.042030767 0.30902618 0.097620144 -0.23909555 -0.25857016
0.3616421 0.61303276 0.05453101 0.056445956 -0.0644852 -0.47226003 0.66222364 0.10502521
0.047164135 -0.31403762 -0.39632025 0.12392016 0.10510665 1.1370202 0.00053303223 -0.16837688
-0.2213482 0.17227295 0.15884045 0.14228037 0.16723962 0.2981246 -0.11695061 -0.43518347
-0.14280848 -0.11839637 -0.2720661 0.10108984 -0.2771991 -0.93787324 0.19119927 -0.17694916
0.023932159 -0.38878876 -0.12553221 -0.07941795 -0.038290154 0.09280953 0.7919012 -0.3892887
-0.26060706 0.028859824 -0.2133542 -0.6924279 0.07892627 -0.17304735 -0.35006857 0.57116854
-0.740351 0.4644371 0.84598505 0.026003176 0.3231492 -0.28312132 0.4211853 0.43844643
-0.052265454 0.9727499 -0.22988091 0.019371197 0.70500267 0.35363632 -0.45888206 0.2598415
-0.016895143 0.13578591 -0.12366874 -0.1792902 -0.16661623 1.0899591 0.19547248 -0.70824564
0.32166976 0.1402482 -0.0757002 -0.30606812 0.25812662 -0.06790454 0.103065 0.9268135
0.33199108 -0.028923754 -0.19293682 -0.09707303 -0.090846166 0.20610406 -0.58660555 0.21383534
0.13715865 0.11318769 -0.027821375 0.10088641 -0.42950028 -0.16048974 0.07974268 -0.5155886
-0.99079335 0.46643046 0.6093479 -0.36642477 0.1164098 0.2223202 0.02213861 -0.047292978
0.025600249 -0.082233906 0.012826888 0.5041758 -0.043567766 0.08805495 -0.22666425 0.032447513
0.27129936 0.22350423 0.20766318 -0.037189364 0.06037741 0.13161941 0.24589053 -0.019423747
0.03518138 0.05582726 0.11073247 -0.09700869 0.16860169 0.081548154 0.09204015 0.15264869
0.09430681 -0.6043372 0.21354616 0.17233677 -1.7644641 -1.5446082 -0.64917564 0.54047805
0.20005155 -0.33815995 -0.1521176 -0.05444373 0.036036327 -0.08265716 -1.0204875 -1.5560174
0.22537093 -0.121499754 0.24205841 -0.093707696 -0.45569748 0.08476007 0.53910214 -1.1585286
0.043336045 0.0659345 0.6739192 -0.19040364 0.8128695 0.51625484 0.008858464 -0.5903496
-0.05828852 0.23523253 -0.36354858 0.1568028 0.16646641 0.87164843 -0.067784846 -0.14232942
-0.978739 -1.8029175 0.17728133 0.2702803 -0.05466293 0.1291965 -1.6461232 0.21752584
0.75810474 -0.5892883 -0.52832997 -1.391019 0.21686533 0.5700761 0.27056763 -1.2362512
0.1497099 -1.1142389 -1.0499161 0.05079148 0.017219327 -0.29414362 -0.005987532 -0.41850775

shared.2.bias f4 [32]
00000000: b3de dabd 6591 ef3d ce5f a03e 8dc5 b3be
00000010: 8669 03bf fa9d 843c 687c 8dbd 8883 86be
00000020: a443 803f 8c6c cbbe bd43 e7bc 47bf e93e
00000030: cd1d 493f a13d 0e3e a427 c6be 8b12 f0be
00000040: 3f80 893e 5a33 563f 16e1 983c 5a5a 8ebd
00000050: 7f8f c1bf 2ed8 9f3d 2576 3b3f fa7c 703f
00000060: ff40 383f ead1 d13e 0b30 84be 4d94 a8be
00000070: df56 e53d 3f66 43be 4cc6 42bf 4d35 883f
-0.10687008 0.11697654 0.31323093 -0.35111657 -0.5133289 0.01618861 -0.06908494 -0.26272225
1.0020642 -0.39731252 -0.028230542 0.45653746 0.785611 0.13890697 -0.38702118 -0.46889147
0.26855657 0.83672106 0.018662017 -0.06950827 -1.5121917 0.07804905 0.7322715 0.939407
0.71974176 0.40980464 -0.25817904 -0.32925645 0.1119821 -0.19081973 -0.76083827 1.0641266

stage_head.weight f4 [5, 32]
00000000: ac44 76be 3297 cf3d 148a 193e 1103 f5bd
00000010: 00a4 0dbf 74b4 08be 5b60 0ec0 915b 903c
00000020: ce39 363e 7a0a 9d3e 4026 a7be 2a08 c83d
00000030: 19e7 a13d 7dd8 59bf 5330 67be b452 a43e
00000040: d983 123f 9d09 e93d c34f a6bd f937 4fbd
00000050: 4a30 3e3f f7b5 f2bf 7e92 31be a59e 0e3d
00000060: 0b3b cdbe a1c7 07bf 9baa a83e 68f5 a43e
00000070: 6372 8e3c 6e23 5f3e 2d02 1e3e 09d5 6e3d
00000080: 9d2a 683f 2997 3b3f 274b 2fc0 2e1e 32bf
00000090: 2e04 0a3f 11da 013e 2965 c63d 313e 8e3e
000000a0: addb 23c0 83f6 62bd 9563 d13e 7e2d 063f
000000b0: 8b9d 62bf e837 173e 454b 453f 1696 6abe
000000c0: 8bcd 233f 0060 09c0 4fe2 a43d 60dc 56c0
000000d0: 3631 f5bd 7dcf 3d3e 32a7 27bd 9428 f8bf
000000e0: 85dc 633e 8415 b83e f95d 58be fae1 ccbe
000000f0: 9ad4 fabf 6ad0 b03d e093 e13d 0aa6 2fc0
00000100: 4258 e03e 9473 513d ddad 94bd f88d 08bf
00000110: bf82 df3e 6373 d7bd 2c91 1e3d 454e bbbc
00000120: 28cf 8b3e a81c 57c0 ff9f 41bd e795 1e3e
00000130: 2713 583e fabe 783e 4b45 a83f 7495 15c0
00000140: fe66 00bc 8190 fc3c c4b0 30bd b691 86be
00000150: 3ab7 38c0 30f4 4e3e f070 2f3e ece5 503e
00000160: d1ba 043e 25c7 a03d e58a 9fbf 4329 11c0
00000170: a379 25be cc7b 01be 4f98 85c0 8899 943c
00000180: a843 16c0 db69 d6bf e98c ae3c ade4 613f
00000190: 83d2 ddbf c283 c33d b10c 5f3e e3ed 7abf
000001a0: 0f48 87bd 2943 a43e 21c3 e93e 263e c93d
000001b0: 8919 003f 2427 85c0 2ef8 8fbf 29f3 af3e
000001c0: 70dd 85bd 9884 243e 6101 1abe 3eef 6a3e
000001d0: 2214 b93e 68cd 27bc 3744 c5be ec01 003e
000001e0: 3f60 2dbf 5a4e 1cbe e8dc 323e 0e92 c03e
000001f0: 4e5b 773d 374c d73c 3055 153f 9c3c 92bd
00000200: f72c 5cbf 340d 8b3c 5266 7cbc a989 9fbd
00000210: 1274 abbe 0581 04be 167a 113d 80e9 1abd
00000220: 7680 8e3e d70a b53e 666f 71be fa1b 0ebe
00000230: febf 483d 78ff 503e d9e5 a4be dccf 943e
00000240: da3e 1cbe 8977 743d 58de 27bd 974d 80bd
00000250: 18ab a53f e358 623e df10 b53d 1c8a 363e
00000260: 0a36 74bd 0d93 8c3d 8ed0 673e 35c9 783e
00000270: 8b6e e93d 25d9 033e e592 533e aa1d c93c
-0.24049634 0.1013626 0.14994079 -0.119634755 -0.5532837 -0.13350087 -2.224631 0.017621787
0.17795488 0.30672055 -0.3264637 0.09767182 0.079054065 -0.8509596 -0.22577028 0.32094347
0.57232434 0.11378787 -0.08120682 -0.05059049 0.74292433 -1.8961781 -0.17341039 0.034819264
-0.4008411 -0.53038985 0.32942662 0.3221848 0.017388528 0.21790859 0.15430517 0.058308635
0.9069002 0.7327753 -2.738962 -0.695773 0.5391263 0.12680842 0.096872635 0.27781823
-2.560283 -0.055410873 0.40896288 0.52413166 -0.8852164 0.1476742 0.7706798 -0.22908816
0.6398551 -2.1464844 0.080509774 -3.3572006 -0.11972277 0.18536182 -0.040930934 -1.9387383
0.2225209 0.35953915 -0.21129598 -0.40016156 -1.9596131 0.08633502 0.11014533 -2.7445092
0.43817335 0.051135615 -0.07259724 -0.5334163 0.4365444 -0.10520055 0.038712665 -0.02286447
0.27306485 -3.361124 -0.047271725 0.1548687 0.21101056 0.24291602 1.3146147 -2.337247
-0.007837055 0.030830624 -0.043137327 -0.26283044 -2.8861833 0.20210338 0.17132926 0.20400208
0.1296189 0.07850484 -1.2464262 -2.2681434 -0.16159682 -0.12644881 -4.1748424 0.018139616
-2.3478794 -1.6751055 0.021307426 0.88239557 -1.7329868 0.09546615 0.21782185 -0.98019236
-0.06605541 0.3208249 0.45656684 0.09826307 0.50038964 -4.161028 -1.1247613 0.34365204
-0.065363765 0.16066206 -0.15039589 0.22942826 0.36148173 -0.010241844 -0.38528606 0.12500733
-0.67724985 -0.15264264 0.17467082 0.3761143 0.06038981 0.02628146 0.5833311 -0.071404666
-0.8600611 0.01697407 -0.015405254 -0.077899285 -0.33486992 -0.12939842 0.03551682 -0.03782034
0.27832383 0.35359833 -0.23577651 -0.1387786 0.049011223 0.20409954 -0.3220661 0.29064834
-0.15258351 0.05968431 -0.040983528 -0.06264799 1.2942839 0.2210422 0.088411085 0.17826122
-0.05962185 0.06863985 0.22638151 0.24295504 0.113980375 0.12875803 0.20661505 0.024550278

stage_head.bias f4 [5]
00000000: a934 b7be 9449 9cbd b90d 253f 3f54 6fbf
00000010: b18d bcbe
-0.35782364 -0.076312214 0.64474064 -0.93487924 -0.36826852
